计算机视觉实践-练习3/SCNet-main/SCNet-T-D64B16.pth (torch, 644523 bytes, 78 tensors)

conv_first.weight f4 [64, 3, 1, 1]
000000 2f 92 9b bc 8f f5 05 3e 94 e0 2d 3e 43 47 61 be
       -0.018990604 0.13081954 0.16980201 -0.2199984
000010 81 14 ef 3e 40 44 fe bd 86 dc fc bc 0a 8d e8 3e
       0.4669533 -0.124153614 -0.030866873 0.45420104
000020 9d 23 50 be b4 e9 4a 3c a4 12 11 bd 44 d9 d9 be
       -0.20326085 0.012384821 -0.035418168 -0.42548573
000030 68 2e 2d 3f a8 18 87 bd 03 b3 5a bc d7 45 d6 3b
       0.67648935 -0.065965 -0.013348344 0.0065390873
000040 83 15 9c bd 97 cf 33 bf ac 5d 80 3e 4a 72 b0 3e
       -0.076212905 -0.7023863 0.25071466 0.34462196
000050 16 6f 0c be 67 c7 8a bb 31 5a 09 bd a5 46 88 3e
       -0.13714251 -0.0042351964 -0.03353328 0.26616398
000060 23 a9 13 be 6b 11 d5 3e 49 20 89 be 77 bb 2e bf
       -0.1441999 0.4161485 -0.26782444 -0.682548
000070 84 9e 94 bd 5c 1d ab 3b c5 0b 1f 3d 5f 54 60 bf
       -0.07256797 0.005222006 0.038829584 -0.8762874
000080 39 7d 68 3e 91 a7 af 3b ab 87 d5 bc 5c d7 10 3d
       0.22704019 0.0053605516 -0.026065668 0.035361633
000090 2e 4a 25 bb d9 0e e5 3d 7f 66 27 3f e2 ca b8 3e
       -0.0025221216 0.111844726 0.6539077 0.36092287
0000a0 77 71 90 3c cb dd c0 ba 03 03 e4 3e 4d 82 ae 3d
       0.01763223 -0.0014714537 0.44533548 0.08520947
0000b0 8c 4a 03 bf 89 75 21 3c 9e 14 87 bf 6f 37 ce 3d
       -0.51285625 0.009854683 -1.0553167 0.10069167
0000c0 98 5e d1 be 7c 2a 1c bc 28 95 e1 3e e5 f9 53 bf
       -0.40892482 -0.009531613 0.4405911 -0.82803184
0000d0 19 9b 5b bb f2 74 ad bd 6c a3 c1 be ef 73 d3 3e
       -0.0033509193 -0.08469571 -0.37819993 0.41299388
0000e0 cc 93 93 bc 71 7b e8 3e 5b 5e 00 bf a6 cb 36 3d
       -0.018014811 0.45406678 -0.50143975 0.044627808
0000f0 76 fb 97 3e 44 27 c7 bc fd 38 a3 3c 01 43 98 3d
       0.29684037 -0.024310715 0.019924635 0.07434655
000100 ee 35 6c be c2 24 cd bd a3 a5 e8 3e a7 81 8d 3e
       -0.23067448 -0.100167766 0.4543887 0.2763798
000110 17 f3 1c 3e 58 1c 3d bf 5f e3 b6 be 11 a3 0f 3e
       0.15327106 -0.73871374 -0.35720345 0.14027049
000120 ad 3e 98 3d 8d 85 c4 3d 07 88 74 be 03 95 08 bd
       0.074338295 0.09595785 -0.23880015 -0.033345234
000130 3d 38 fe 3d df 63 e6 3d cc 2a 88 bd af 6b 8e 3e
       0.1241307 0.11249518 -0.06648788 0.2781653
000140 6e 4e 5c be 0f 31 d6 be 37 91 54 3d 73 4c 8e 3e
       -0.21514294 -0.41834304 0.0518963 0.277927
000150 58 e6 ae be 29 13 ed 3e e4 70 cc bd e8 45 7b 3e
       -0.34160113 0.4630368 -0.0998247 0.24538386
000160 0e 21 ce be c1 21 2c 3e f1 35 03 bb 22 68 91 3c
       -0.40259594 0.16809751 -0.0020021165 0.01774985
000170 db 85 04 c0 f7 27 a4 3d 8f a4 b8 3e 2f ca 58 3c
       -2.07067 0.08015435 0.36063048 0.013231798
000180 d6 c6 d3 bc fb e6 de 3e 29 d4 cc be c9 91 99 3d
       -0.025851648 0.435356 -0.40005615 0.074985094
000190 56 3e 14 3e a9 15 5d be e4 46 e4 bd 28 85 92 3e
       0.14476904 -0.21590294 -0.11146334 0.28617215
0001a0 2d 06 bd 3d 87 82 36 3b cf 95 f8 3e e7 81 94 bd
       0.092296936 0.0027848796 0.48551795 -0.072513394
0001b0 93 3b 00 bf b0 1d b8 3e a4 49 0b bc 13 1c 4f be
       -0.50090903 0.3596015 -0.008501444 -0.20225553
0001c0 41 75 f6 3e 1d e1 79 be 5f 77 f1 be 80 bb 96 bd
       0.48136333 -0.2440228 -0.47161385 -0.073599815
0001d0 8e 8b 73 3c 1e 69 31 bb b8 fe 91 bf 64 c1 30 3e
       0.014864815 -0.0027070711 -1.1405859 0.17261273
0001e0 56 85 54 bb 89 32 6e 3e 71 55 cf 3e 81 22 85 3e
       -0.0032428107 0.23261465 0.40494874 0.26002887
0001f0 8f 63 06 be 7d 9f 84 3d f0 75 87 3e d9 67 01 bf
       -0.13123916 0.064757325 0.26457167 -0.50549084
000200 03 85 80 3e 3f d0 83 3c 60 48 81 3d d7 74 88 3d
       0.2510148 0.01609051 0.063126326 0.066629104
000210 35 41 b9 bb b4 a6 96 bc 49 71 b6 bf 81 ad ff bb
       -0.0056535252 -0.018390037 -1.4253322 -0.0078026657
000220 22 ac 30 bc 75 6a b5 3e 61 5f 97 3e fb 2b 57 3e
       -0.010783227 0.35432783 0.29564956 0.21012871
000230 f7 b2 91 be 73 77 5f 3e 80 45 d3 bd c9 91 13 3e
       -0.28456852 0.2182291 -0.103159904 0.14411081
000240 c5 80 9e 3d 58 a1 eb be 2f ba ba 3e d5 b2 8e bd
       0.077394046 -0.46021533 0.36470172 -0.06967703
000250 9b 02 fd 3d 88 aa a7 bd 42 82 76 3c 46 7e 2f be
       0.123540126 -0.08186823 0.015045704 -0.17138013
000260 b6 aa 92 be bd 55 f8 be ca 2a 9b be 74 c9 82 3e
       -0.28645867 -0.48502913 -0.30306083 0.25544322
000270 cd ac 2b 3e c2 cc 83 bc 5e f5 24 3e da 6f 93 be
       0.16765137 -0.016088847 0.16109225 -0.28796273
000280 19 0d 89 3e 0a 4e ae be 9a 82 83 3e 2a 18 e4 3e
       0.26767805 -0.34043914 0.2568558 0.44549686
000290 d8 0e e0 be eb d7 3e be 12 03 fe bc d9 b5 96 3e
       -0.43761325 -0.18637054 -0.031007323 0.29435614
0002a0 7f e3 99 bc 32 72 bd be e7 cf b6 3d 5c 68 04 3f
       -0.018785236 -0.37001187 0.08926373 0.5172174
0002b0 07 2f 9c be fb 77 48 be 06 9a 0e c0 bf f2 42 3d
       -0.3050463 -0.19577019 -2.2281508 0.047594782
0002c0 50 bc 45 3c b8 2f cd bf 85 82 dc 3d 40 75 87 bb
       0.012068823 -1.6030188 0.10767082 -0.0041338503
0002d0 f5 bb a7 bd eb c9 d4 be b8 65 f2 3e 8f b3 01 bc
       -0.08190147 -0.415603 0.4734323 -0.007916345
0002e0 a0 7a 57 bd 90 d3 3c bf 9d d8 97 3d d7 81 c2 be
       -0.05260718 -0.7376032 0.074143626 -0.37989685
0002f0 0a 9e e1 be 4c b3 a5 bc 08 0a 81 3c 80 38 c7 3d
       -0.44065887 -0.020227097 0.015751854 0.097275734

conv_first.bias f4 [64]
000000 4b 5b 72 bb f5 82 d9 3c 9d 4e bd 3b 81 7c 21 3e
       -0.0036980684 0.026551703 0.0057771937 0.1577015
000010 c6 85 d8 3b 45 d7 31 3e 48 9a 3b 3b 91 d9 07 bb
       0.006607744 0.17367275 0.0028625894 -0.0020729045
000020 d2 61 a6 ba a5 a6 77 3e 07 e2 be 3d 30 c7 2f bc
       -0.0012693948 0.24184664 0.09320455 -0.010728642
000030 f1 d6 28 3a 82 32 c9 b9 34 76 14 3c ef db 3a 3c
       0.000644072 -0.0003837534 0.009061385 0.011404975
000040 7b 90 d5 3c f0 18 cd 3d f2 5e 15 3d c4 2e 94 3a
       0.02606987 0.10014522 0.0364675 0.0011305441
000050 f9 2d 30 bb 55 f6 0a 3e 4d c7 91 3a 1d dc 5f 3d
       -0.002688287 0.1357053 0.0011122018 0.054653276
000060 35 f7 32 3c b4 48 b6 ba 89 03 5a 3c 7b 83 00 3d
       0.010923197 -0.0013907165 0.013306507 0.03137539
000070 c9 26 33 3b 5b 9d dd bc 9c d4 db 3c 8b 8c ba bc
       0.002733635 -0.027052572 0.026834778 -0.022772094
000080 b2 9c 42 bb 70 b1 42 3c c0 ee c4 3c d8 8c 96 39
       -0.0029695448 0.011883125 0.024039626 0.00028715166
000090 1e fb f9 3d de 78 04 3d 0c 77 da 3d 6d 93 48 3d
       0.122061 0.03234183 0.10667238 0.04896872
0000a0 94 8f 31 3a be 6d 05 b9 77 11 c9 3b 55 dc 0b bd
       0.0006773409 -0.0001272475 0.006136115 -0.034145672
0000b0 3d 2c b5 3d aa a6 a3 be ed 1e 1a ba 7f 1b 92 3a
       0.088463284 -0.31963092 -0.0005879242 0.001114711
0000c0 39 75 4e 3d a5 1c 51 3d 74 ec a3 3e 6f 4a 59 3d
       0.05040476 0.05105271 0.32016337 0.0530495
0000d0 15 f4 aa bb 87 3a 8b 3c e9 5e af 3d 71 11 81 3d
       -0.005217085 0.016995681 0.085630246 0.06302155
0000e0 36 62 b1 3d 0b 4f 03 3d 89 fc a1 3c 39 07 2f 3d
       0.086613104 0.032057803 0.019773738 0.042731497
0000f0 b2 6e 10 3d eb 22 dc 3d 7d b3 7e 3b 32 42 44 b6
       0.035261817 0.107488476 0.0038864308 -2.9244807e-06

body.0.conv1.weight f4 [64, 64, 1, 1]
000000 51 77 a8 3d c2 29 4e 3d 97 7c 41 3c c9 97 0b bc
       0.08225883 0.050332792 0.01180949 -0.008520075
000010 82 7d 48 3d 41 08 2c 3d 37 e2 f0 bc 8d 59 47 3e
       0.04894782 0.04200006 -0.029404743 0.19467755
000020 5f 76 fb 3e ca 39 45 3e 25 4e 3b 3f 60 90 8e 3d
       0.49113747 0.19260326 0.73166114 0.06961131
000030 4c d9 86 3d ee 45 30 3d 75 0d db 3d ea 77 2c 3f
       0.06584415 0.04303544 0.10695926 0.67370474
000040 f3 44 41 3e b5 a3 97 3e a2 04 d8 bd df 53 83 3d
       0.18873958 0.29617086 -0.10547759 0.064124815
000050 3f f2 2c 3d 39 1e d4 3d 14 2f ff 3c 45 cb 24 be
       0.04222321 0.10357327 0.031150378 -0.16093166
000060 9a ff 82 bc 0e 79 84 3d 58 6a 39 be 36 36 5b 3c
       -0.015991021 0.06468402 -0.18106973 0.013379624
000070 98 d7 3c 3d 37 55 0f bf 3f a0 9b 3f 68 79 98 39
       0.046104044 -0.559894 1.2158278 0.00029082154
000080 38 03 ca 3e 90 a3 00 be 4a 68 c7 3c cb 73 ca 3c
       0.3945558 -0.12562394 0.024341721 0.024713418
000090 b0 5c 5f be 43 67 1f be cf af 15 3e 0d 39 12 3f
       -0.21812701 -0.15566735 0.14617847 0.571183
0000a0 a3 42 c1 3d a1 c3 ac 3d 58 a5 9c 3e 5c b1 82 3f
       0.09436538 0.08435751 0.30594897 1.0210376
0000b0 4e 7a ed 3e 62 f1 c8 bd bf b4 66 bd 55 6a 9b 3d
       0.46382374 -0.09811665 -0.056324717 0.075886406
0000c0 3f 50 00 be 18 5f 98 3d fc 5b 23 3d 49 8f 2c 3b
       -0.12530611 0.07440013 0.039882645 0.0026330522
0000d0 31 90 2b 3d 40 4c 60 be 90 cb 10 be ff a5 dc 3d
       0.04188556 -0.21904087 -0.14140153 0.10773849
0000e0 de 01 53 3e 79 3b 93 3d 1a 27 1b 3f 09 e5 e4 3e
       0.20606181 0.07189078 0.6060654 0.4470599
0000f0 dd 2b 89 bd 69 86 57 3e e9 fc a7 3c 67 7e 4f 3d
       -0.066978194 0.21047367 0.02050634 0.050657656
000100 c1 58 0a 3d 2c 5c 1d 3c 0a e1 a0 bd 90 d2 fc 3a
       0.03377605 0.009604495 -0.07855423 0.0019288827
000110 ae 43 2f bd dd 38 7e 3d af f1 c6 bc 15 39 77 3d
       -0.042789154 0.062065948 -0.024285166 0.060357172
000120 48 f9 34 3e 2d 52 13 bc b9 29 05 be c8 8c c9 3d
       0.17673218 -0.00899176 -0.13004197 0.09841305
000130 d8 d8 d1 3d 91 26 51 bc 94 4b 3b 3d 1f 59 de bc
       0.10246438 -0.012765543 0.045726374 -0.027142106
000140 84 d4 ab 3e 6a ff 9b bc f5 63 1b bc d1 5a 2a 3e
       0.33560574 -0.01904269 -0.009484281 0.16636206
000150 51 6e 4e 3c a0 e5 1e 3e f1 4f 29 3d 13 d7 5e bd
       0.012599544 0.15517282 0.041336004 -0.05440433
000160 9c 1f 09 3b ac 08 ca 3b cb 6d a9 bd c7 93 f9 3d
       0.0020923382 0.0061655845 -0.082728945 0.121863894
000170 43 4e d1 bc 17 f1 29 bd f2 12 dc bd a3 2d 94 bb
       -0.025550013 -0.041489687 -0.10745801 -0.004522042
000180 3a 3d b8 3e 60 9c 6e bd 48 18 a6 3d 80 35 27 bc
       0.35984212 -0.0582546 0.081101 -0.0102056265
000190 9f 87 dd 3d 05 36 1d bd 01 d1 3c bd 54 bf 22 bb
       0.10816883 -0.038381595 -0.04609776 -0.0024833279
0001a0 07 56 72 3d 55 4b 27 ba d0 bc c1 3d 62 5a 1d 3d
       0.059164073 -0.000638177 0.09459841 0.038416274
0001b0 bc da 82 bb fc 42 3b 3f b2 72 80 bd 80 d4 64 3d
       -0.0039933603 0.73149085 -0.062718764 0.05586672
0001c0 47 51 fa 3d 7f 97 0a be ed e7 44 3d 26 89 26 3c
       0.12222534 -0.13534354 0.048072744 0.010164535
0001d0 3c 89 93 3d 95 3d 8f be 0e 36 ac bd b1 08 9b 3d
       0.0720391 -0.2797667 -0.084087476 0.07570017
0001e0 b9 cc aa bd e2 99 06 3d 56 62 c5 3c de c3 a5 3d
       -0.08339829 0.032861598 0.024094742 0.08093999
0001f0 89 ae c9 3e 84 39 03 3e cd a2 a8 bd 0e 49 1f 3d
       0.39390972 0.12814909 -0.08234177 0.03888803
000200 95 99 96 3d 9b 84 00 3e 9f 35 db 3d 82 ae 38 3d
       0.07353512 0.12550585 0.10703587 0.0450883
000210 21 df 9d 3d bc 2b ec 3b 3e fd 13 3e 32 83 8a 3d
       0.07708574 0.007207362 0.14452073 0.06763305
000220 e7 50 b8 3d 12 f4 a9 3c a4 62 85 3c 45 06 80 3d
       0.08999806 0.020746265 0.016282387 0.06251196
000230 a6 9d e2 3d 43 e5 f5 3d 04 88 20 3c c9 80 dd bd
       0.11065225 0.12006619 0.009798054 -0.108155794
000240 5c 92 83 bd 62 74 fc 3c 9c cd c2 3d 19 38 2b be
       -0.064244 0.030817214 0.09511873 -0.16720618
000250 4c 7e b0 3d 5b 60 87 bd 3c 0e d3 3d 86 14 2e bd
       0.08617839 -0.06610175 0.10305449 -0.04250004
000260 6c 4f 44 3d 7a d8 a9 3d 7c d1 fa 3c 2d 1a a5 3c
       0.047927305 0.08293243 0.030617468 0.020154083
000270 81 54 6e 3d 28 22 db 3c 42 3a 02 3d 3a 8f cd 3d
       0.058186058 0.026749685 0.03179384 0.10037084
000280 49 b1 f6 3c d0 6c a9 3d 5a ed 19 3e a4 51 fd 3d
       0.030113833 0.082727075 0.15031949 0.12369087
000290 15 c6 73 bd c6 a8 83 3d d6 9d 00 bd b0 5b c5 3b
       -0.059515078 0.06428675 -0.031400524 0.006022893
0002a0 43 30 90 3d 7e 91 b4 3d f6 d8 91 bd c6 3b ee 3c
       0.07040455 0.08816813 -0.0712146 0.029081237
0002b0 de c4 ea 3d ec ca 07 3e c3 f9 a7 3d 15 3b d5 3d
       0.11463331 0.13261002 0.08201935 0.1041166
0002c0 01 b4 6d bd b8 20 e7 bd 60 e7 a0 bc 1b 85 ce bd
       -0.058032993 -0.112855375 -0.019641578 -0.100839816
0002d0 89 e5 a2 3d 62 56 21 be a7 46 d2 3d dd f3 70 3c
       0.079539366 -0.15755609 0.10267382 0.014706579
0002e0 ac a6 63 3d 59 ea 36 3d a7 03 8e bd b9 28 07 3d
       0.055578873 0.044657085 -0.069342904 0.03299782
0002f0 32 da 90 bd b5 cf 30 bd 4d 78 a8 bd bd a1 44 3d
       -0.070728675 -0.043166835 -0.082260706 0.04800581
000300 99 9a 39 bb 3d 89 8f bc 0b d8 0d 3d b7 51 d1 3d
       -0.0028320907 -0.017521495 0.034629863 0.10220664
000310 bd 5c df 3c 5e f9 9b 3d 2a f0 e5 3d e7 0f 5b bd
       0.0272659 0.076159224 0.11227448 -0.053481963
000320 da d8 aa 3e 97 9a 3f bd 77 bf 14 be 4a fe cc bd
       0.3336857 -0.046778288 -0.14526163 -0.10009439
000330 6f 8f 79 bc 0b 94 01 3d 49 09 78 3e 12 16 97 3d
       -0.015231951 0.031635325 0.24222292 0.073772565
000340 11 5b f8 bc a2 b3 4d be 40 98 d7 be 39 6e b0 3c
       -0.030316861 -0.20088056 -0.42108345 0.021536933
000350 0d ee 1c 3d 8a 94 e9 3e 10 09 42 3d c0 22 22 be
       0.03831296 0.4562114 0.047371924 -0.15833569
000360 45 44 0a 3e 13 35 57 3d a6 e8 47 3e f0 fb 33 3f
       0.13502605 0.05254085 0.19522342 0.703063
000370 03 71 1c 3e 79 17 5f bd aa fe 0f 3e 5b 33 a6 3b
       0.15277486 -0.054465745 0.1406199 0.00507204
000380 d2 52 d0 3e 8a ca 76 3d eb bd 96 3c df fb a2 3c
       0.40688187 0.06025175 0.018401107 0.019895492
000390 2a 97 9a 3d 66 d3 82 3d f4 99 34 bd e5 23 4b bd
       0.075483635 0.06387977 -0.044092134 -0.04959478
0003a0 00 f9 17 bd b4 b8 f0 3c 7e b0 92 be 39 8f f0 3d
       -0.0371027 0.029384948 -0.28650278 0.117460676
0003b0 d9 f1 52 3e e5 c4 53 3f 4c 10 79 3d a6 fe 9a 3c
       0.2060007 0.8272231 0.060806558 0.018920254
0003c0 43 a4 11 be eb 79 87 bd 8f fd 2c 3e 14 33 0f be
       -0.14222817 -0.06615051 0.168936 -0.13984329
0003d0 85 66 c1 bb 2d 95 34 3e dd 6e b2 3d 8c f9 d8 bd
       -0.005902114 0.17635031 0.08712552 -0.10594472
0003e0 d4 85 f6 bc e2 25 08 3e 20 4e 56 bd a5 42 92 bd
       -0.030093111 0.13295701 -0.0523206 -0.07141618
0003f0 09 1c c8 bd 79 9d 94 3e e8 73 a0 39 74 47 02 bc
       -0.09770972 0.29026392 0.00030603935 -0.007951606

body.0.conv1.bias f4 [64]
000000 78 67 d4 3d 14 b1 15 bd 8e 5d a6 bb ea 70 e5 bd
       0.103712976 -0.036545828 -0.0050770706 -0.11203177
000010 bd 90 c2 bc a5 fd 3f bd 50 2c 80 bd 59 f7 2b 3e
       -0.023750657 -0.046872754 -0.06258452 0.16793574
000020 2e 89 c1 3d ff 8b 25 3d e1 68 af bb 10 f5 2b be
       0.09449993 0.040416714 -0.0053530787 -0.16792703
000030 29 92 a2 3d 57 7a 07 bd 5e b0 f9 bc 0b c2 16 bd
       0.07938034 -0.033075657 -0.030479606 -0.036806148
000040 63 e4 b3 bd 3e a3 86 bb 54 1f 63 bb 67 cd d3 bb
       -0.08783796 -0.0041088155 -0.0034656124 -0.006463695
000050 a9 9c fc 3c c6 e5 be bb 50 97 08 bc 94 a5 77 bc
       0.03083642 -0.005825731 -0.008336857 -0.0151151605
000060 0b bf 58 bc 95 1c f7 bb 08 54 d5 bb 0b a3 ee 3c
       -0.013229142 -0.007541249 -0.0065102614 0.02913048
000070 01 bc af bd a8 48 12 3d 65 4d dc 3d 5b b4 ce 3a
       -0.08580781 0.03571382 0.10756949 0.0015770303
000080 14 f5 eb ba dd 8e 67 bd 7c 7f a7 3b 4a dd 0a bc
       -0.0018002116 -0.05653273 0.005111633 -0.008475611
000090 df 18 47 be ef 25 94 bc 8a 33 a7 3b 5f a7 93 bd
       -0.19443081 -0.018084494 0.0051025795 -0.07209658
0000a0 f9 55 19 ba 00 00 00 00 1b 5c 0c bb 4c 0c 6d ba
       -0.0005849298 0.0 -0.0021417204 -0.0009042665
0000b0 de 19 99 bb 01 41 7c bb d6 88 73 bd 07 98 2d bc
       -0.004672273 -0.0038490894 -0.05945667 -0.010595328
0000c0 ca f0 7c bb d3 ea 0b bc 5a f3 14 bd 33 4d 26 3d
       -0.003859567 -0.008539873 -0.03636489 0.040600967
0000d0 63 cc 38 bc e5 69 1b bc 6b 09 1f bc 9a 60 53 bd
       -0.011279198 -0.009485696 -0.009706835 -0.0516058
0000e0 01 c9 c0 bb e7 bb 36 bd 5c 1b 47 bb dd 85 1e bd
       -0.0058833365 -0.04461279 -0.0030381298 -0.03870188
0000f0 53 29 63 bc d0 84 80 3a 1f 92 b2 bc 64 fb d6 bd
       -0.013864833 0.0009805206 -0.021798192 -0.10497168

body.0.conv2.weight f4 [64, 64, 1, 1]
000000 f6 0f b3 3d 17 f8 f2 bc 55 09 2e bd 92 3f a9 3d
       0.08743279 -0.029659314 -0.04248937 0.08264078
000010 3f 70 87 bd 56 24 a3 bc 98 47 b8 3d 14 57 82 3e
       -0.06613206 -0.019914787 0.089980304 0.2545706
000020 c0 06 99 3e 64 8b a9 3b da 76 bb bc 0c 84 f1 bb
       0.29887962 0.0051740874 -0.022883821 -0.0073704775
000030 6b 51 db bc 64 70 24 be ed 2c a3 bd 00 08 62 bd
       -0.026772222 -0.16058499 -0.07967553 -0.05518341
000040 bf 6f 15 bd ae 98 1a 3c 5e 58 19 3c 4f b3 91 3c
       -0.036483523 0.009435816 0.009359447 0.017785696
000050 e9 a2 c9 3e 0c 14 ee 3b fc 02 5d 3c b7 b0 7f 3e
       0.39382103 0.0072655734 0.013489481 0.24969755
000060 16 37 b6 bc 0c ca cf 3c b0 14 14 bc ac bb 5e 3c
       -0.022243064 0.025364898 -0.009038135 0.013594549
000070 1d a7 c4 3c 18 66 7f bc 27 24 16 be dd 50 cf bc
       0.024005467 -0.015588306 -0.14662229 -0.025307113
000080 b1 64 b1 3a 45 b4 77 bd 89 d4 31 3e 1d d4 5b bc
       0.0013534037 -0.060474653 0.17366232 -0.013417271
000090 59 48 40 be cd b1 ca 3b b2 ff fa bd d0 00 70 3e
       -0.18777598 0.0061857463 -0.12255801 0.2343781
0000a0 51 be ef 3c 0a df f4 3c 07 04 38 bd 00 49 2d be
       0.029265555 0.02989151 -0.044925716 -0.16922379
0000b0 32 5a e1 3b 83 a9 03 3c 86 25 f8 3d bd c5 19 bd
       0.006877207 0.00803602 0.12116532 -0.037542094
0000c0 10 77 1d bd a7 eb 8b 3c 46 ea 8f 3c 76 0d 1e 3d
       -0.038443625 0.017080141 0.017567765 0.038587056
0000d0 43 37 f6 bc f5 89 be bb a2 32 ba bc 32 e6 db b9
       -0.030055648 -0.0058147856 -0.022729222 -0.00041942444
0000e0 28 f6 9c 3c 04 5f 85 3d b4 3c 46 3c d0 23 0f 3e
       0.019160345 0.065122634 0.012099434 0.13978505
0000f0 31 72 a4 bd c6 94 9a bb 5c 8d 46 3e 89 0f 9d bd
       -0.08029593 -0.004717442 0.19389862 -0.07668979
000100 f1 a6 d3 bd 5b ef f7 bd 00 3e f9 bd 05 4f 2d 3d
       -0.10334576 -0.121062 -0.12170029 0.042311687
000110 3f d4 df bd 84 ab 79 be ca c9 22 bd 61 3d c4 bd
       -0.109291546 -0.24381834 -0.039743222 -0.095820196
000120 f6 75 fd 3c df 08 38 3d 96 3b 87 bc 9b 46 b3 3e
       0.030940037 0.044930335 -0.016507905 0.35014805
000130 4d c1 98 bd 13 be b4 3d 63 39 ea 3d 8e 2f 66 be
       -0.07458744 0.08825316 0.11436727 -0.22479078
000140 bd 67 49 3d b6 ea 9a 3c 7b 14 b2 bb e1 8f 13 bc
       0.0491712 0.018910747 -0.0054345704 -0.009006471
000150 6a 0b b5 bd 56 6e f9 bb e9 5d d1 39 8b ea bf 3e
       -0.08840068 -0.00761203 0.00039933555 0.3748363
000160 93 8d b2 3c 6a 0b f4 3c da 3c 8c bc 16 9f 5b bd
       0.021796023 0.029790599 -0.01711886 -0.053618513
000170 7b 1e 1e 3e bb af ff bc 1e 9d 5f 3e 30 94 b0 3c
       0.15441315 -0.031211725 0.21837279 0.021555036
000180 7c b2 97 bc d3 c2 cd 3d 8c 6a a8 3d 25 ba d1 3c
       -0.018517725 0.100469254 0.08223447 0.025601456
000190 4e 05 3f 3d b2 df e0 be b4 0f 18 bd 0f dd ba 3d
       0.04663592 -0.43920666 -0.03712435 0.09124195
0001a0 ad c9 dc bd 2b 18 67 3b a4 04 2f 3d 40 3e 87 bc
       -0.10780654 0.0035262208 0.042729035 -0.016509175
0001b0 54 b2 d1 bc 1d cf 63 bc 41 8f 69 bd f7 10 68 3b
       -0.025597729 -0.01390436 -0.057021383 0.0035410502
0001c0 11 12 e0 bc ed c3 98 bc 3c 95 6c bc b3 78 20 3e
       -0.027352365 -0.018648112 -0.014439877 0.15671043
0001d0 cd 55 d3 3c e8 e6 04 3e 5a 70 15 3c 3a 36 2c bd
       0.025797749 0.12978709 0.009121025 -0.042043902
0001e0 cf 92 d3 3c 82 e3 32 3c 23 38 d9 3a 86 2d 0a bd
       0.02582684 0.0109185 0.0016572516 -0.03373482
0001f0 ae ef ef bd b5 0c 87 3c 82 23 b4 3d dc 24 00 3f
       -0.11715637 0.016485551 0.08795835 0.5005624
000200 d5 d0 5d be 01 15 e6 3d 93 28 83 3d 82 47 9b be
       -0.21661694 0.11234475 0.06404223 -0.30327994
000210 3e bf cb 3d 50 ed a4 be 69 85 59 bc c4 3d 87 be
       0.09948586 -0.32212305 -0.013276436 -0.2641431
000220 65 3d 04 3e 32 d7 8c 3e 7b 42 63 bc fe b3 cf 3d
       0.12914045 0.2750793 -0.013870831 0.10141753
000230 42 69 82 3e 4d d8 50 be 1d bb fc 3c 61 42 23 be
       0.2547093 -0.20395012 0.030850941 -0.1594329
000240 90 7b 46 3d 8e 1d b7 3c 42 54 7e bc 91 16 31 bc
       0.048457682 0.02235296 -0.015523018 -0.010808603
000250 8d 3f 88 bd ca b0 4e 3b 07 11 96 3c b9 32 26 3e
       -0.06652746 0.003153848 0.018318666 0.16230287
000260 fd 7a e4 bc ff fc dc bb ca e8 a8 bc 3d 28 01 bd
       -0.027890677 -0.0067440267 -0.020618815 -0.031532515
000270 8c c8 9b be 18 1f 40 bd 6e a1 8d 3d 42 8f 2d bd
       -0.30426443 -0.046904653 0.06915556 -0.04237295
000280 3e 06 6f bc ca f7 1c 3d 14 4a 23 3e af a5 e6 bc
       -0.014588891 0.038322248 0.15946227 -0.028155176
000290 59 d6 f6 3d 4e 3a a9 bd 6d c8 0c 3d 95 dd 0a 3b
       0.12052602 -0.08263074 0.03437083 0.0021189202
0002a0 5c 94 e8 3d 85 20 39 3c 7c 85 34 bb 2a 95 2c bd
       0.11356422 0.011299257 -0.0027545383 -0.04213444
0002b0 cf 76 66 3c 2f d7 1a bc d9 6b 30 3d b8 3a b8 3c
       0.014066412 -0.009450718 0.0430716 0.022488937
0002c0 92 af 1e 3c 83 73 7e 3c 00 07 cd bb d4 70 26 3e
       0.009685414 0.01553047 -0.006256938 0.16253978
0002d0 5c 90 15 bd 15 de 69 3e 76 2c 2e 3c 6c fa a2 bd
       -0.036514625 0.22838624 0.0106307175 -0.079579204
0002e0 06 0a 37 ba 1b 36 76 3c 54 08 6e 3b d7 56 4d be
       -0.00069823896 0.015027548 0.0036320882 -0.20052658
0002f0 27 ff 63 3e 66 99 a3 3b 8d 9f 07 bd 72 fc 85 3d
       0.22265302 0.0049926518 -0.033111144 0.06542291
000300 e3 51 39 be e3 96 c4 bc ab b2 f8 bd fd ae e0 3d
       -0.18097644 -0.02399773 -0.12143453 0.10970876
000310 a8 2e c8 bd e1 52 70 be a6 ef a7 bd e4 7c 01 3e
       -0.09774524 -0.23469116 -0.08200006 0.12645298
000320 dc e8 84 3b ba 3c dc bc 3d 22 dc 3c 43 3d ef 3d
       0.0040560793 -0.026884425 0.026871795 0.116816066
000330 64 bf dc bc 74 25 11 3e 47 a3 8d 3d ba 0b 07 be
       -0.02694673 0.14174443 0.06915908 -0.13188067
000340 a8 2c d7 3c d8 4e 89 3c cf 79 09 3c cd 2c c8 bb
       0.026266411 0.016761228 0.008390858 -0.0061088563
000350 74 9b 65 be e6 ea ee 3c f6 8e 4c 3a 14 86 b9 be
       -0.22422582 0.029164743 0.0007803285 -0.36235106
000360 c9 e9 2f 3b 9a a0 0b bd 1b 42 74 bb e1 6c c9 3d
       0.0026842228 -0.03408871 -0.0037270847 0.0983522
000370 dd ed 81 3d e9 0b 19 bd 24 01 9e ba 8b b9 f7 3d
       0.06344197 -0.037364874 -0.0012054783 0.120959364
000380 89 65 72 3c 36 3e db bd 08 5a 52 3e 92 53 83 bb
       0.014794716 -0.10705225 0.20542157 -0.004007765
000390 0a 1c 12 bc 61 9b 8c bd ac dc 55 3c d2 86 9f 3c
       -0.008917818 -0.06865574 0.013053101 0.019473467
0003a0 e6 6f b8 3e e7 e5 14 bc fc 6d 18 bc e3 63 81 3c
       0.36022872 -0.009088016 -0.009303566 0.0157947
0003b0 e8 6a 12 bd 4a d7 0b bd 0b 8e 95 3c 6e 5d 2d 3d
       -0.035746485 -0.034140863 0.018256208 0.04232543
0003c0 bc 61 63 ba 43 f1 95 bc f7 1c 66 bd 09 ad 04 be
       -0.00086739263 -0.01830352 -0.056179967 -0.12956633
0003d0 b9 f7 ef bd 48 48 f7 bd 98 e0 b9 bb b2 8b 97 bd
       -0.11717171 -0.120743334 -0.0056725256 -0.07399692
0003e0 f6 27 dd 3c 2c 23 47 bd 2e 7c 06 3c a6 6f 37 3e
       0.026996594 -0.048617527 0.008208318 0.17913684
0003f0 a4 f2 59 3d 16 f2 8f 3c d9 55 dd 3d d7 d6 56 3f
       0.053209916 0.01757149 0.1080739 0.8392157

body.0.conv2.bias f4 [64]
000000 c8 11 43 be 69 31 da bc e0 ee 03 be 7b 2c 2b 3c
       -0.19049752 -0.026634889 -0.12884092 0.010447617
000010 ad 90 ac bc 9a a2 d3 bd e9 f0 81 bd 99 7a cd bd
       -0.02106508 -0.10333748 -0.06344778 -0.10033149
000020 1f 5b a2 bc 46 81 92 bd b4 ee a6 ba e9 86 fe bd
       -0.01981884 -0.07153563 -0.0012735934 -0.12428076
000030 c2 62 ec bd 42 1a 11 be 87 d1 ea bc 9f 72 8e 3d
       -0.11542274 -0.14170173 -0.028664364 0.06955456
000040 f4 67 b4 3d 8a a2 b2 bd bd d1 9a bd 56 c1 db bd
       0.0880889 -0.08722408 -0.07559536 -0.10730235
000050 08 6b 02 3d 6b 9a c3 3d 75 68 88 be fe 95 ac 3d
       0.031840354 0.09550937 -0.26642194 0.08427046
000060 cd 7e cb 3d 62 6a 15 be 05 50 fa bd 4b 78 65 3d
       0.09936295 -0.14591363 -0.12222294 0.056022923
000070 3e e5 78 bb ee 3b 84 bc 4c a0 36 3c cf 09 39 be
       -0.0037978436 -0.016141858 0.011146616 -0.18070148
000080 a5 07 ce 3d 08 da ae bd bb cb ea 3b 4c 15 d2 bd
       0.10060052 -0.0853768 0.0071654 -0.10257968
000090 cc 2e 54 bd 11 46 a2 bc b5 ff 07 3d 24 94 23 3d
       -0.05180244 -0.0198088 0.033202846 0.0399362
0000a0 ad 8c 87 bd c6 c6 3d bd 0e 75 49 bd 1a 93 39 3c
       -0.06618629 -0.046332143 -0.049183898 0.011326576
0000b0 24 57 f5 bb c4 82 19 3d f5 12 8f bd 25 2c c8 bd
       -0.0074871946 0.037478223 -0.06986038 -0.09774045
0000c0 3e b4 d9 3c 45 75 ab 3c 27 0e fd bd f1 f6 83 bd
       0.026575204 0.020929942 -0.12356215 -0.06443585
0000d0 f3 c2 ea bd 6c c2 04 bd 45 83 26 3d d1 60 2f 3d
       -0.11462965 -0.032411978 0.040652532 0.04281694
0000e0 5d 30 46 3d 0a 3a cd bd 30 21 06 3d 13 9b e4 bc
       0.048385967 -0.10020836 0.032746494 -0.027905976
0000f0 e2 cd 3f 3b 9f 44 7e 3d d9 c0 88 3c 79 df 48 3d
       0.0029267003 0.06207716 0.01669352 0.049041245

body.1.conv1.weight f4 [64, 64, 1, 1]
000000 c1 f3 32 3e 31 eb f6 3d b9 d9 42 3d a1 c7 c3 bd
       0.17475797 0.12056578 0.047570918 -0.095595606
000010 b4 a1 64 be eb b2 47 be 28 73 19 be bf 50 6a 3e
       -0.2232731 -0.19501846 -0.14985335 0.22882365
000020 e8 d8 c8 bb e0 ae 5e bb 6f 3e b9 3d 05 f5 6e 3d
       -0.006129373 -0.0033978745 0.090451114 0.058339138
000030 f6 d7 b0 3e 9d f5 ea bd 84 6c c5 3c 69 4f 20 be
       0.34539765 -0.11472628 0.024099596 -0.15655293
000040 bc 83 b4 3e cc 12 31 be 83 e6 3b be 27 88 11 be
       0.35256755 -0.17292327 -0.18349652 -0.14212094
000050 07 ab 82 3d e8 e8 19 3d a2 92 85 3d 83 83 d2 bd
       0.06380277 0.037575632 0.065221086 -0.1027899
000060 97 8d 49 be e4 3e fd 3d 61 60 82 3d f5 68 f1 3d
       -0.19682918 0.12365511 0.06366039 0.11787597
000070 f2 08 12 3e 49 a1 5c 3d 40 04 ee bd dd ca 90 3a
       0.14261225 0.05386475 -0.116219044 0.0011046786
000080 48 c9 20 3d 55 a1 4a bd ff e0 62 3e d2 fd c6 3c
       0.039254457 -0.049470264 0.22156142 0.024290953
000090 bf 79 90 3e 63 93 39 bd 56 5e c5 3c 64 c3 59 3d
       0.28217885 -0.045306575 0.024092834 0.053164855
0000a0 8a 7c a7 3e ef 11 49 3d 28 b0 8a 3d 61 69 ef bd
       0.32712203 0.04908937 0.067718804 -0.11690021
0000b0 c1 55 97 be fe 70 9d 3d 8f c4 b7 bd 36 09 cd 3d
       -0.29557613 0.07687567 -0.089730375 0.100115225
0000c0 70 34 4a bd 4a d0 71 bd 55 4d 19 3e a9 0e 37 3e
       -0.049366415 -0.05903653 0.14970906 0.17876686
0000d0 32 8b a0 3d 41 16 e7 3c b4 b3 aa be 45 bc b3 3e
       0.078390494 0.028208854 -0.33340228 0.35104576
0000e0 d4 cd 72 bd 2b 04 2e be f0 df 6e 3d 3e d9 2a 3e
       -0.059278324 -0.16993777 0.058319032 0.16684434
0000f0 75 f7 63 3e f2 f5 a1 be d7 ee 00 be d3 e4 4a 3d
       0.22262366 -0.31632954 -0.1259111 0.04953463
000100 8c 5e 94 3d 11 d7 2c be de 76 ad 3b e7 f6 f2 bd
       0.07244596 -0.16878916 0.005293711 -0.11863499
000110 a6 dc 99 be 8b 89 2a 3d ec 67 81 3e db f5 34 3e
       -0.30051154 0.041635077 0.252746 0.17671911
000120 0f a6 87 3e 07 3d 88 3e 28 45 1e be f0 da 64 3b
       0.2649388 0.2660906 -0.15456069 0.0034920536
000130 81 dc e9 3d 37 e3 17 3e 73 d9 d0 3d 1c 09 03 be
       0.11419011 0.1483277 0.10197725 -0.12796444
000140 0a 25 86 be 7a db b2 3e 85 ac 6e 3d b4 79 5a bd
       -0.26200134 0.34933072 0.058269996 -0.05333872
000150 d5 42 24 3e 6a 23 9a be 10 8b 61 be 6e e6 f9 ba
       0.1604112 -0.30105144 -0.22025704 -0.0019065866
000160 08 c9 c8 be bc 91 06 be 06 29 4b bb 20 06 a2 be
       -0.39215875 -0.13141531 -0.0030999794 -0.31645298
000170 08 70 32 3e e2 40 82 3e 43 69 3b 3d 84 5a 78 bd
       0.17425549 0.25440127 0.045754682 -0.060633197
000180 f2 b0 f7 bb 97 0d 91 3d 12 58 b3 bc 14 1a 81 3e
       -0.0075589353 0.0708267 -0.021892581 0.2521521
000190 e4 5c 90 be 02 88 97 3e 81 e9 43 be bd 2a f0 bd
       -0.2819587 0.29595953 -0.19132043 -0.11726902
0001a0 17 24 a4 bc 34 41 00 bd 7e 28 1a bb 53 28 93 3e
       -0.02003674 -0.031312183 -0.002352267 0.28741702
0001b0 18 f1 12 bd 82 1d a1 3d f4 56 c5 bc 4f 5e 9c bd
       -0.035874456 0.07866956 -0.024089314 -0.076351754
0001c0 c9 88 83 be 8e ad e9 bd c0 d5 6c bd ae c1 f9 3d
       -0.25690296 -0.11410056 -0.057821035 0.121951446
0001d0 bd e9 0d bd a0 95 fd bc 5c 23 04 3d be 57 f8 bd
       -0.03464674 -0.030955136 0.032260284 -0.121261105
0001e0 49 ae 16 3d 7c 25 5d 3e 71 22 9c 3e 0d 02 b3 be
       0.036787305 0.2159633 0.30495027 -0.34962502
0001f0 d3 ec b7 bd 3e 47 de bc 90 7c 0a 3f 79 c3 4e 3e
       -0.089807175 -0.02713358 0.5409632 0.20191754
000200 db fd 66 3d 19 8c ab 3e 62 47 40 3e 27 9c 1b 3e
       0.05639444 0.33505324 0.1877723 0.15196286
000210 7e 5a ea bd f4 8b 6c 3d 41 1b 39 3e 8f d1 04 3d
       -0.11443041 0.057750657 0.18076803 0.032426413
000220 36 a9 10 bd 29 31 c9 bc d9 4d a9 3c d5 37 b7 bc
       -0.035317622 -0.024559574 0.020667003 -0.02236549
000230 c2 c5 ea 3c e1 96 22 bd 79 77 0e be e3 61 8e be
       0.028658751 -0.03969467 -0.13912763 -0.27809057
000240 ed 61 06 be 9b 70 48 3e b7 03 22 be e6 e9 0a be
       -0.13123293 0.19574206 -0.1582173 -0.13565788
000250 e6 6a 55 3d c7 4d 69 be 1a 94 3c 3d 7c c6 5f be
       0.0521039 -0.22783576 0.04603968 -0.2185306
000260 61 8d 8a 3d 2a c4 64 3c ce 48 73 bd d3 a3 b9 bc
       0.06765247 0.013962785 -0.059395604 -0.022661125
000270 49 30 41 be a3 71 ac 3e 54 a7 ac 3d 51 c5 25 3e
       -0.18866076 0.33680448 0.08430353 0.16188551
000280 24 43 5a 3e 57 05 07 be 36 e9 42 be b5 9b a4 3d
       0.21314675 -0.1318563 -0.19034275 0.08037511
000290 9b e0 36 3e ad b9 18 bc 6c ab b5 3d 69 a1 a9 3d
       0.17859118 -0.009321612 0.08870587 0.0828274
0002a0 b5 97 33 3d b3 50 e3 bd 92 9c cf bc 55 69 8a ba
       0.04384585 -0.110993765 -0.025343213 -0.0010559956
0002b0 5e 82 00 bd 49 0a ec 3d 41 28 81 bd e4 b3 b4 bd
       -0.031374328 0.11525399 -0.06306506 -0.08823374
0002c0 ee 9c 0b 3e 43 8d c8 bd 91 c4 20 3e 3c d3 66 be
       0.13634083 -0.097925685 0.15699984 -0.22541517
0002d0 23 5f c8 3d 66 8a ed bd 9e 9a 20 be ac 56 46 be
       0.09783771 -0.11598663 -0.15683982 -0.19369
0002e0 50 f6 29 bc ce 1c 45 3e af e5 f4 3e 87 2d 40 3e
       -0.010373667 0.1924927 0.47831485 0.18767367
0002f0 b9 5d 9e be c5 bb 19 3e 8b dd 47 be ad 3e bb bd
       -0.3093088 0.15013035 -0.19518106 -0.09142814
000300 8f 5e 9c bd e6 0d 96 bd 6f c6 83 bb ea 01 79 3d
       -0.07635223 -0.0732687 -0.004021458 0.06079284
000310 1d 4a 84 bc 08 df 1d 3e fb d8 9a be 4a 92 04 bd
       -0.016148621 0.15417111 -0.30243668 -0.032366075
000320 a1 b0 27 bd 0a 50 09 3e fb d8 91 3d eb 50 e2 bd
       -0.04093993 0.13409439 0.07121464 -0.1105059
000330 6a 94 b0 be b2 37 a5 bd c2 94 31 bd 4b 11 b0 3c
       -0.3448823 -0.08067264 -0.043354757 0.02149262
000340 bb 77 ec bd 30 36 3d 3e 6b 3c ce bd d6 f1 09 3d
       -0.11546274 0.18477702 -0.100701176 0.0336779
000350 fa 24 cc be 91 d4 6b bd 3a 3e 86 3d b6 56 dd 3d
       -0.3987196 -0.057575766 0.065548375 0.108075544
000360 78 56 49 be 8b 0c da bc 50 64 99 3e 4e 9f b4 bc
       -0.19661891 -0.02661731 0.29959345 -0.022048619
000370 2a 3e 21 3c 34 58 bf 3d 29 4c 2b bd 61 c0 24 be
       0.009841481 0.09342995 -0.04182068 -0.16089012
000380 1a 12 9d bd d8 d7 8a bd 43 90 1a be ff 3b 31 bd
       -0.07669468 -0.0677945 -0.15094094 -0.043270107
000390 73 24 38 bd 38 dc a8 bd 46 29 d8 3d 04 b8 d1 3d
       -0.044956636 -0.082451284 0.10554747 0.10240176
0003a0 40 d0 18 3c 19 26 bc bd 9a 8f 6e bd 4c 1c d8 bd
       0.009326994 -0.09186954 -0.058242418 -0.10552272
0003b0 f8 91 84 3e bb b1 28 bd 91 c0 45 bd 14 aa e4 3b
       0.25892615 -0.041185122 -0.04827935 0.0069782827
0003c0 a9 6b 6f bc be 1d 17 b9 57 54 47 be 31 99 61 bc
       -0.0146130705 -0.00014411562 -0.19465767 -0.013769434
0003d0 fa ed 9a be 6c 39 e5 3d 98 ee 01 be 05 51 1b be
       -0.30259687 0.11192593 -0.12688673 -0.15167625
0003e0 76 6a 77 bd b0 49 ec 3b d5 c5 55 3c 90 b4 b1 bc
       -0.060404263 0.0072109327 0.013047655 -0.021692544
0003f0 00 ba 0e 3e 93 ef 07 3e c0 db 6f bc 67 7e 5e be
       0.13938141 0.13274984 -0.014639795 -0.21727906

body.1.conv1.bias f4 [64]
000000 c6 86 14 3d b3 33 8f be 79 6e 64 3d 33 04 6f 3c
       0.036261342 -0.2796913 0.055769417 0.0145884035
000010 72 70 2c bd ed c5 ec bc 44 f2 b1 3d 8a 5c c0 3d
       -0.042099424 -0.028902972 0.086887866 0.093926504
000020 b4 24 cb 3d 55 35 a4 3d 27 c2 eb 3d 35 f1 9d bb
       0.0991911 0.08017985 0.11511641 -0.004820014
000030 71 46 8a 3c 45 e7 fa 3c 04 06 3e bd 42 a9 14 3d
       0.016879292 0.030627856 -0.046392456 0.03629423
000040 06 46 34 bd 12 87 79 3d 90 fd 14 3d 89 da d7 3c
       -0.044012092 0.06091983 0.03637463 0.026349323
000050 a7 60 4f 3c 27 b2 39 3d c9 dc 4b bd 8e 7d 05 3e
       0.012657321 0.045335915 -0.049771104 0.13036177
000060 b5 29 11 bd c5 c7 0f 3d ba fd 44 3d 7d e4 d2 bc
       -0.035440166 0.035102624 0.048093535 -0.025743717
000070 3e 10 32 3d 2d 76 bc bc a6 3b e2 bc 5c 31 82 3d
       0.04347252 -0.02300557 -0.027616333 0.06357071
000080 27 72 dc 3c 8d ba 58 3d 91 3a 40 3d 62 b5 81 3d
       0.0269099 0.052912284 0.046930853 0.06333424
000090 87 37 3d 3c 0e 14 5b 3d c3 e3 03 3d 75 4d ef 3c
       0.011548883 0.053485923 0.032199632 0.02921174
0000a0 02 d4 58 bb e3 c2 60 3d 40 8d 0d be b3 38 17 3d
       -0.003308535 0.05487336 -0.13823414 0.036919307
0000b0 e2 74 cc b9 e6 06 2d 3d 01 3c 6d be a8 35 81 3d
       -0.00038996997 0.042242907 -0.23167421 0.06309062
0000c0 6e 38 5e 3d 82 95 3c bd 4f 05 17 3c 75 66 61 bd
       0.054253034 -0.04604102 0.009217574 -0.05502935
0000d0 33 b1 06 be 77 9e 45 3c c4 c1 d9 3c 27 5d be 3c
       -0.13153534 0.012061707 0.026581652 0.023237778
0000e0 0a ed 69 3c 88 f3 46 bd ce 17 cc 3c 42 2a 3c 3d
       0.014277706 -0.048572093 0.024913695 0.045938738
0000f0 5b 7b 1a be 21 5a 07 bd de e1 42 bd 13 e1 bd bd
       -0.15086119 -0.033044938 -0.047578685 -0.09271445

body.1.conv2.weight f4 [64, 64, 1, 1]
000000 b9 5c f3 bc 2a b9 75 bb 65 fe bd bd dd 57 8f 3c
       -0.0297073 -0.00374944 -0.092770375 0.017497951
000010 5b f2 07 3b 91 df 4e bd 7d e8 09 bc 7e 70 b2 3c
       0.002074382 -0.05050618 -0.008417246 0.021782156
000020 5c 8e 0a be 08 e0 83 be a9 d1 d5 3e 6a a8 d9 bd
       -0.13530868 -0.2575686 0.4176152 -0.106278256
000030 eb f7 90 bb 2e cb f9 bd 6c c3 08 be 05 63 96 be
       -0.0044240854 -0.121969566 -0.13355798 -0.2937242
000040 e9 27 0d 3c a7 7d 50 3d 66 a3 ad 3d 55 c0 48 3e
       0.008615472 0.05090108 0.084784314 0.19604619
000050 74 87 90 bd f4 af 0d 3e 25 27 d2 3b 0a f3 a5 bd
       -0.07057086 0.13836652 0.006413358 -0.08102997
000060 b9 8f 8f 3d 0d 01 9a 3b 0c a7 15 be 53 7e 07 3e
       0.07009835 0.0046998323 -0.14614505 0.13231783
000070 72 e1 a9 3d 47 47 25 3e 92 6e 20 be 80 78 75 3e
       0.082949534 0.16140471 -0.15667179 0.23971748
000080 46 90 5e 3e 54 6e 93 3e db 7f 3a 3d 4e 01 9d 3b
       0.21734723 0.2879511 0.04553209 0.0047914153
000090 2b 01 11 be 02 d7 62 bc a2 ec 6e 3e fb ea 71 3d
       -0.14160602 -0.013845207 0.23332456 0.059061985
0000a0 41 f3 ee 3c 15 8d ab bd 81 9c 80 3c 33 31 ff 3d
       0.029168727 -0.08376519 0.015699627 0.12460556
0000b0 34 28 1c bc dd b3 2c 3d 70 eb 0c 3d a8 64 9c bd
       -0.00953107 0.04216372 0.03440422 -0.07636386
0000c0 20 35 28 3e 85 b6 2c be a5 5e 4b 3e dc b2 dc 3d
       0.16426516 -0.168665 0.19860323 0.10776302
0000d0 74 45 cc bb a4 45 dc 3d 51 b0 da bc 6d 57 5f bd
       -0.0062338654 0.107554704 -0.026695402 -0.054526735
0000e0 7f 06 3e 3e f3 e5 9f ba 87 a7 a2 bd aa 95 d1 bd
       0.18557166 -0.0012199268 -0.079421096 -0.10233624
0000f0 df e6 11 3c 42 f0 5b bd f0 5f 22 3e c1 c5 65 bd
       0.008905142 -0.053695925 0.1585691 -0.056096796
000100 03 6f 61 be cc 40 db 3e b0 78 6e bd e6 d3 f9 3d
       -0.22015004 0.42822874 -0.058220565 0.121986195
000110 42 c9 c5 3c ca a9 08 3e 42 28 49 bd 5c 8b 02 be
       0.024143819 0.1334602 -0.04911066 -0.12748474
000120 23 83 0e 3e d6 96 c1 bc 6e 98 77 bd ba e1 03 3d
       0.13917212 -0.023631494 -0.060448103 0.03219769
000130 25 b9 19 3e 75 df 00 3d 1e f2 22 3e 5e 0f 51 3d
       0.15012033 0.031463105 0.15912673 0.051040046
000140 d6 24 36 be 5b e7 90 39 2c 1f 95 3d bb 60 ed bd
       -0.1778749 0.00027638194 0.07281336 -0.115907155
000150 ed d4 7f bc fc e0 29 3d 88 c8 b6 bc 68 ae 83 3d
       -0.01561473 0.041474327 -0.022312418 0.0642975
000160 dc fd 29 3e 33 97 88 3d 1d ab 40 3d a1 22 1c bd
       0.16600746 0.06669464 0.047038186 -0.038118962
000170 9f e8 71 3e 8a 72 73 3c 25 de 95 be 7a 3d f5 bd
       0.23623894 0.014858851 -0.29271045 -0.11974616
000180 e1 04 ee bd 64 21 87 3e 52 e3 05 3e 71 11 b9 be
       -0.11622024 0.26392663 0.13074997 -0.3614612
000190 78 14 f7 3d 58 b2 1e 3e 97 07 7c 3e ec 6d 3f 3e
       0.12064451 0.1549772 0.2461227 0.18694276
0001a0 7b ef 37 3e 71 41 97 3c 32 12 29 3c a2 2c f4 bd
       0.17962448 0.018463822 0.0103192795 -0.119225755
0001b0 fc 51 17 be 8c b4 7b 3c 89 a6 d6 bd ab 58 43 3e
       -0.14777368 0.01536287 -0.10480983 0.19076793
0001c0 de 50 57 be e6 e1 21 3e 0a 8b f0 3d 81 1a 2d be
       -0.21026942 0.1580883 0.117452696 -0.16904642
0001d0 3e 61 40 3e 58 eb 68 3e e8 15 9d bd 43 f3 f3 bc
       0.18787095 0.22746027 -0.07670194 -0.029779082
0001e0 8b e6 19 3c 64 61 00 be c0 72 8b 3c 49 6f 1d be
       0.009393345 -0.12537152 0.01702249 -0.15374483
0001f0 2d 05 94 bd 81 2e 15 bd 14 0e a0 be f2 49 af 3d
       -0.0722755 -0.036421303 -0.3126074 0.08559026
000200 0e c4 66 3e 11 f9 a0 3e 02 48 00 be ff ea 09 bd
       0.22535726 0.31440023 -0.12527469 -0.033671375
000210 a3 9f 3b 3e 43 3e 18 3e f9 b7 81 ba 60 43 7c 3c
       0.18322615 0.14867501 -0.0009896747 0.015396923
000220 e8 69 17 3d f0 b4 94 bd c0 97 4f 3d df ba 85 bd
       0.036966234 -0.072610736 0.05068183 -0.065297835
000230 1c d7 c3 bd c1 74 7a 3b 6a a4 d7 bd 67 e4 ab 3c
       -0.09562513 0.0038216563 -0.10529406 0.020982934
000240 60 a3 f7 ba f6 8a 82 bd c1 ff 4f 3e e5 42 e2 bc
       -0.0018893294 -0.06374161 0.20312406 -0.027619788
000250 06 9b 4e 3e bc 34 fd 3d 84 64 5b 3d c8 a9 e7 3d
       0.20176324 0.12363574 0.053562656 0.1131168
000260 9d 88 80 3d 26 bb 99 bc 01 0d 94 3c d6 35 6a bd
       0.06276057 -0.018765997 0.018072607 -0.05718025
000270 76 87 16 3d f8 b4 a6 3d 35 5a 8e 3d a4 40 5f 3e
       0.03675028 0.08139986 0.069507994 0.21802002
000280 74 e9 f8 bd 33 82 85 bd b0 a4 23 bd 98 20 94 be
       -0.12153903 -0.06518974 -0.03995198 -0.28931117
000290 2c 4b 8d 3e 12 16 a4 bb 0c f3 a7 3e 41 37 f4 bc
       0.27596414 -0.005007514 0.32802618 -0.029811503
0002a0 12 f4 c2 3c 89 a5 03 3b 34 e5 0b 3e f1 61 bd 3c
       0.023798022 0.002008768 0.13661653 0.023117991
0002b0 25 92 d8 bd c8 c4 54 3e da cf 90 3d 91 66 09 3b
       -0.1057475 0.20778191 0.070708945 0.0020965675
0002c0 7d 58 ff be 20 fb 75 3e 1f d1 a6 3e 8e a3 2a bc
       -0.498722 0.24021578 0.32581422 -0.010414971
0002d0 b1 91 b4 be 34 a5 3f be eb aa de bb 12 06 29 bd
       -0.35267404 -0.18715364 -0.0067952774 -0.041265555
0002e0 46 97 b0 be 1e 82 51 3d ed 50 7f 3e 2a c9 dd 3c
       -0.34490412 0.05114948 0.24933214 0.027073462
0002f0 95 cf e2 3e 15 25 6d 3e 81 ec 7a 3e c5 72 88 3c
       0.44298998 0.23158677 0.24504282 0.016656289
000300 44 07 3d be 81 9b b8 3e 1e ab b2 bd a8 a3 27 bd
       -0.18459803 0.3605614 -0.08724044 -0.04092756
000310 76 8a 9e bd 54 71 28 be a8 ed 7e 3d ff 86 9c bd
       -0.07741253 -0.16449481 0.062238365 -0.07642936
000320 34 d0 41 3e 30 7a 2b 3e 6c f8 38 be 8b 8a 4d 3d
       0.1892708 0.1674583 -0.18063515 0.050180953
000330 9c 0b c4 3d e7 ec 92 3e 3d 56 fb bd 64 b6 23 bc
       0.09572527 0.28696367 -0.12272308 -0.009992216
000340 e4 32 c4 be dd 03 58 bd 92 6d 6e 3e 04 86 ca bb
       -0.38320076 -0.05273806 0.23283985 -0.0061805267
000350 8d 2d 89 3b 08 03 0e 3d 1a 1a 5a b9 9d 2e ea bd
       0.0041863383 0.03467086 -0.00020799824 -0.11434672
000360 b3 35 a8 bc 24 ac cd bd f8 b5 c4 bd 45 b5 b5 3a
       -0.020533418 -0.10042599 -0.0960502 0.0013863227
000370 9b f7 eb be 27 50 3a 3d 27 4c 09 3d 80 a8 24 be
       -0.46087345 0.045486595 0.03351989 -0.16079903
000380 80 6a 3e 3e 19 7c 9d be 65 de 4e 3e 09 07 a6 bd
       0.18595314 -0.30758741 0.20202024 -0.081068106
000390 65 5d eb bc 7a ce e3 3d 58 f8 33 3d 34 b8 43 3c
       -0.028731057 0.11123367 0.04393801 0.011945773
0003a0 92 11 63 3e 98 b5 aa bc 82 e7 12 be 21 dd a7 3d
       0.22174671 -0.020838544 -0.14346126 0.08196474
0003b0 c9 ef 62 3c 31 c2 b8 3c 8f cf 10 bd 68 8e c6 bd
       0.013851115 0.022553535 -0.035354193 -0.096951306
0003c0 f8 b9 25 3e 94 a5 2a bd 81 41 1b 3d 79 fd 15 bd
       0.16184223 -0.041661814 0.037904266 -0.036618683
0003d0 6c e6 6f 3d 43 53 dd 3e 79 53 da bd c8 80 66 be
       0.058569357 0.43227586 -0.106604524 -0.22510064
0003e0 ae c8 3a 3e df 86 6a be 85 ea ce be a9 8e 18 be
       0.18240616 -0.22903012 -0.404133 -0.1489817
0003f0 aa e4 a0 3e 5e df 25 be 23 cc 09 3e 57 9b f6 3d
       0.31424457 -0.16198489 0.13456778 0.120413475

body.1.conv2.bias f4 [64]
000000 3a e9 96 bd 69 48 d0 bc 56 4f 29 bd 11 17 0a 3d
       -0.07368703 -0.025425153 -0.041335426 0.033713404
000010 c9 5a 7a 3d 0f 47 05 bd c6 09 2b 3d 1c e6 2f bd
       0.061121736 -0.03253847 0.041757368 -0.04294406
000020 96 71 a4 bc 34 09 42 bb e5 1a 44 3d 32 11 2c bc
       -0.020073693 -0.0029607536 0.04787721 -0.010502147
000030 36 50 6c 3d 0e 70 9f bd 2d e5 fd 3c 5b c6 7c 3c
       0.057693683 -0.077850446 0.030993069 0.015428151
000040 7c 23 ce 3c 22 81 46 bd 17 ab 6e bd ef dc 63 bd
       0.025163405 -0.048462994 -0.058268633 -0.05563062
000050 02 fc f5 3c aa da 5b 3a ad 5c ee bd 3f 35 24 3c
       0.030027393 0.00083867705 -0.1163877 0.0100224605
000060 32 08 9a 3d 5b c3 5b bd 84 92 34 3d 54 8d 82 bd
       0.075210944 -0.053653102 0.04408504 -0.063746125
000070 d2 4b 02 3c 46 9a ee bb 6c 2c d2 3c 35 6f bd bc
       0.007952647 -0.0072815744 0.025655948 -0.023124317
000080 17 0e 82 3d 98 68 11 bd de fe 0e 3e ef 19 1c 3b
       0.06350344 -0.03550014 0.13964412 0.0023819169
000090 ed 69 c9 3c ce 20 16 3d 8d de 8b 3c 54 36 46 3c
       0.024586642 0.03665238 0.017073894 0.012097914
0000a0 62 67 04 3d 3c 5e 12 bc fa 6a 03 bc f9 a1 92 bc
       0.032325156 -0.0089336 -0.008021111 -0.0178995
0000b0 36 d7 07 be c3 f3 6b 3c 6c 84 0a 3d e4 74 a2 3c
       -0.1326569 0.014401379 0.033817694 0.019831128
0000c0 e4 a7 ed bc ed 65 5b bc fe c0 38 3b 25 12 6b bd
       -0.02901072 -0.013391 0.0028191204 -0.05739035
0000d0 0a 28 82 bd cf 98 22 bd 34 cf 14 3d a2 84 2c 3d
       -0.06355293 -0.03969651 0.036330417 0.042118676
0000e0 e1 9c 9b 3c 50 2f 14 3d 71 98 7c bd 9a b2 c8 bc
       0.018995704 0.036177933 -0.061668817 -0.024499226
0000f0 cb a7 5b 3d 25 d1 e5 bc 66 36 a3 bd 52 60 47 bb
       0.053626817 -0.02805383 -0.0796936 -0.0030422402

body.2.conv1.weight f4 [64, 64, 1, 1]
000000 54 be 7e be 9a db 4c bd 2a aa c6 bd 78 e4 de bc
       -0.24877292 -0.050014116 -0.09700425 -0.027208552
000010 8b 40 7e be a0 0c 83 3d 1e 2a 9d bc ca f5 8e bd
       -0.24829309 0.063988924 -0.019185122 -0.06980474
000020 88 23 a3 3c c9 52 44 3e 75 14 20 be 4b be ef bd
       0.019914404 0.19172205 -0.15632804 -0.117062174
000030 0c 64 76 bd 0b c1 a7 3b 59 19 e5 bd f2 10 2c 3e
       -0.060154006 0.005119448 -0.11186475 0.16803339
000040 4d c9 fb bd e9 37 24 3e bc df d9 bb 4c 49 31 bd
       -0.122942545 0.16036953 -0.0066489857 -0.043282792
000050 d6 44 67 be 6a 66 00 bd 89 0d 9f bd d7 ac 1c 3e
       -0.22584853 -0.03134767 -0.077662535 0.15300308
000060 cd 8f 21 be e3 1d 88 bc 4b 69 62 3d 5e e7 0b 3e
       -0.15777512 -0.016615814 0.055276196 0.13662478
000070 1f 5e df bd d5 3e 00 3e b7 42 0c 3d 4c 83 94 bc
       -0.10906624 0.12523969 0.03424331 -0.018129013
000080 e8 b4 ac bd 7f 91 df 3c c3 f4 53 bd 91 e6 3b bd
       -0.08432943 0.027291058 -0.051747095 -0.045874182
000090 a4 ef b3 3c 05 d4 28 3d 82 d4 ae 3d e1 6c 0f 3e
       0.021964855 0.041217823 0.085366264 0.14006378
0000a0 fc 17 2d be df aa 35 be a1 52 c7 3d a0 8d 14 3e
       -0.1690368 -0.17740963 0.09732557 0.1450715
0000b0 77 be 01 3e 18 df b9 3c dd 06 c0 bd 9b e2 81 bd
       0.12670313 0.022689387 -0.09376309 -0.0634205
0000c0 a0 85 af bd f8 d3 aa bd bc 84 5f bd 2f d8 1a bb
       -0.08570409 -0.08341211 -0.054569945 -0.002362739
0000d0 5d 2e 3c be 93 1f aa bd af bb df bd 45 22 6c 3d
       -0.18377061 -0.083068036 -0.1092447 0.05764987
0000e0 8a 7d cc 3d 49 32 7d 3c af 08 ea bc 85 73 82 3d
       0.09984882 0.015453883 -0.028568594 0.0636969
0000f0 1a 93 0a 3e d0 ac 34 3d bf 51 3a bd 66 9c 87 be
       0.13532677 0.04411012 -0.045488115 -0.2648651
000100 da 3e 31 3e 42 74 6d bd ce 02 78 3d e0 fa e5 bd
       0.17309132 -0.0579722 0.06054955 -0.11229491
000110 97 0d 77 3e 18 6d 04 3e 6d b3 66 3d 6d 47 ac bc
       0.24126278 0.12932241 0.056323458 -0.021030152
000120 36 2f 7b 3a 7e 21 bf bd 15 b2 11 3d 09 8c 03 bd
       0.0009581925 -0.0933256 0.035570223 -0.03211597
000130 76 45 f9 3d 3a 88 40 be ca d3 57 3d be 1e 1a be
       0.12171452 -0.18801966 0.052692212 -0.1505079
000140 89 55 20 3e 3a 71 d2 bd 83 8d b9 bd 08 d6 27 3c
       0.15657629 -0.102755025 -0.09060194 0.0102439
000150 84 f3 af 3e a4 0a 0f be 30 13 10 3e 9e 6a c4 3c
       0.34365475 -0.13968903 0.1406982 0.02397662
000160 49 8b 7e 3e ff 86 9a bd 5d de 8c 3c cd 1a d6 bd
       0.2485782 -0.0754528 0.017195875 -0.104543306
000170 69 1e 82 bd 3a 8b 89 bd fc ac f5 3d ed 5e cf 3d
       -0.063534565 -0.067160085 0.11995885 0.101255275
000180 d3 38 62 3c 1b 14 a5 bd 86 ee 41 3e 1c 8f 9a 3d
       0.013807493 -0.080604754 0.18938646 0.07546827
000190 6c 34 1e 3d 5d 25 21 bc f7 b7 11 3d eb 4e 19 be
       0.038624212 -0.009835568 0.035575833 -0.14971511
0001a0 d2 3b 9f 3e b2 56 e2 3d bf 60 5f bc 9d 6b 5c be
       0.31100327 0.11051692 -0.013633906 -0.21525426
0001b0 24 6b c9 bd a0 44 da bd ca 92 e4 3c 76 a0 17 3e
       -0.098348886 -0.106576204 0.027902026 0.14807305
0001c0 37 a8 82 bd a4 4a 61 3e 8f 61 f4 bc 0d 69 0e 3c
       -0.06379741 0.2200113 -0.029831676 0.008692038
0001d0 37 cb 41 3e 0a 14 46 3e 42 75 73 3e 2d 3a e8 3d
       0.18925177 0.19343582 0.23775199 0.11339221
0001e0 db b1 d3 bd db 77 04 be 94 6a db 3d f9 ed 1b 3d
       -0.103366576 -0.12936346 0.107136875 0.038068745
0001f0 dd 97 0e be 01 9c 62 bd d7 83 e8 bd 7a c3 b4 3e
       -0.13925119 -0.05532456 -0.113532715 0.35305387
000200 4b ad 55 be 67 d6 21 3e 54 b6 cd bd b4 b5 f5 3d
       -0.20866887 0.15804444 -0.10044542 0.11997548
000210 72 c5 ed bd 1c 28 8c 3d 0e 31 e8 3d 97 0a 32 be
       -0.11609925 0.06843588 0.113374814 -0.17386852
000220 cf e2 fc b9 bc 57 f1 3d 34 54 58 bd de 67 1f 3d
       -0.0004823417 0.11784312 -0.052814677 0.038917415
000230 25 74 f5 bd 91 93 88 3e b6 0c 0d 3d b7 48 67 bd
       -0.119850434 0.26675084 0.03443595 -0.05646583
000240 12 6b 18 bb ce 62 e5 3d 6d 26 c9 3d 7c e9 56 be
       -0.0023257178 0.11200486 0.09821782 -0.20987505
000250 e0 4f 70 be bf 22 73 bc 4e c9 5f bd 8e de e2 bd
       -0.2346797 -0.014839827 -0.05463534 -0.11077605
000260 a6 47 67 bd 87 52 34 be 9c e0 ec bd 62 1a de 3d
       -0.056464814 -0.17609607 -0.11566278 0.10844876
000270 af 2c c9 3c 2c b4 d8 3c c0 62 9d bc ba c2 2b bd
       0.02455744 0.0264531 -0.019212127 -0.041933753
000280 49 db 47 be 91 b8 e1 3d 00 22 23 bd 8b 4c 87 bd
       -0.19517244 0.110215314 -0.039827347 -0.06606396
000290 81 60 8f bd 71 2e 00 3c b2 f2 61 bd 47 ef 4d 3e
       -0.070008285 0.0078235725 -0.055163093 0.20110808
0002a0 3a 8c 92 be 9b 85 fd bc 2a ad cb 3d d8 4d c1 3d
       -0.2862261 -0.030947497 0.09945138 0.09438676
0002b0 81 11 02 3e f8 ba 9a 3c a3 c9 66 3c 6c 0f b3 bd
       0.1270199 0.018887982 0.01408616 -0.08743176
0002c0 1d 68 4c 3d ab 76 19 be 21 66 d5 3d 1d 54 22 bc
       0.049903978 -0.14986674 0.1041987 -0.0099077495
0002d0 40 be 3f 3b de c3 56 be 7f 88 d2 3d a4 f7 89 bb
       0.0029257685 -0.20973155 0.10279941 -0.0042104293
0002e0 dc e5 19 3e c3 d4 f8 3d 18 c7 93 3e 3e 35 0b 3e
       0.1502909 0.12149956 0.28862834 0.13594529
0002f0 ec 6d a3 3d e8 71 9a bd 90 a8 0d be 7d e2 4f be
       0.0797995 -0.07541257 -0.13833833 -0.20301242
000300 24 70 20 be c6 18 59 3c 4d 4f 65 bd fe e4 16 3e
       -0.15667778 0.013250535 -0.05598383 0.14735791
000310 b8 b2 f6 3d 96 44 82 bc 86 a5 d4 3d 5f 94 80 be
       0.12045807 -0.015901845 0.103831336 -0.25113198
000320 0e 4b 4a bc 3b 08 a9 3e 56 4d b7 3e e4 12 d6 3d
       -0.012346996 0.33014092 0.3580119 0.10452822
000330 6d 57 72 be 28 02 0d be d4 fa 4e bc c8 35 49 3e
       -0.23666163 -0.13770354 -0.012633044 0.19649422
000340 b0 39 76 bd f4 20 90 3e e8 cd 4a bd 0d 05 8b be
       -0.06011361 0.2815014 -0.049512774 -0.2715229
000350 46 b5 d9 bd e7 f3 c3 bd ca d0 a9 bd 29 16 00 be
       -0.10630278 -0.09568005 -0.082917765 -0.12508453
000360 5c 27 0a be 2d b3 45 be 0c 85 3d 3e 40 c1 01 3d
       -0.13491577 -0.19306631 0.18507785 0.03167844
000370 a2 99 2b 3d ae bb 30 3d 56 58 0f 3e bd e2 69 be
       0.041894563 0.043147735 0.13998541 -0.228404
000380 bb 3e c7 3c f7 53 fd 3c a3 a3 82 bd 89 28 b3 bd
       0.024321904 0.030923827 -0.063788675 -0.08747966
000390 62 ba 36 3b 9e 50 44 3e e3 35 f2 bd 91 46 a0 3e
       0.002788209 0.19171378 -0.11826684 0.31303838
0003a0 be 09 7e be ff b8 04 3e 86 03 bc 3d 31 26 99 be
       -0.24808404 0.12961195 0.091803595 -0.2991195
0003b0 ce e9 a1 3d fa fa 05 3d 6a 60 0d be c3 55 7a bc
       0.07905923 0.032710053 -0.1380631 -0.015279236
0003c0 2f 6b 06 be fe c5 f3 3d 79 93 69 be b6 d6 a8 bd
       -0.13126825 0.119029984 -0.22810163 -0.08244078
0003d0 68 ed e7 3c dd 83 85 3d f0 6c d0 bd 8a 15 7c be
       0.028311446 0.065192915 -0.10177028 -0.24617592
0003e0 4d 7b a8 3c ac 21 10 3e 4d 26 10 3d fd 4c 24 3e
       0.020566607 0.14075345 0.035192776 0.16044994
0003f0 6b 8a 15 3e 78 ad 04 3d d3 05 23 be f3 11 1c be
       0.14603584 0.032391995 -0.1592019 -0.15241222
